COGS300Robot/Assets/Resources/M_4RT_1N/Agent-10000090.onnx (onnx, 923545 bytes, 19 tensors)

discrete_action_output_shape f4 [1, 6]
000000 00 00 40 40 00 00 40 40 00 00 00 40 00 00 00 40
       3.0 3.0 2.0 2.0
000010 00 00 00 40 00 00 00 40
       2.0 2.0

network_body._body_endoder.seq_layers.0.weight f4 [256, 366]
000000 c7 34 0b bb 19 e0 07 3e 71 33 e8 3d 88 63 74 be
       -0.0021241175 0.1326908 0.11337937 -0.23866093
000010 93 fa 03 be 82 1c 7c 3d a2 a7 93 bb 41 35 dd bc
       -0.12888555 0.061550625 -0.0045060674 -0.027002933
000020 f3 27 f9 3d 65 1e 3a be 6a 55 61 3d ee 8d cf bd
       0.12165823 -0.18175657 0.055013098 -0.10134493
000030 76 03 9c 3d 93 c3 0f bd 87 17 1b 3e ce d6 49 bd
       0.076178476 -0.035098623 0.15145694 -0.04927712
000040 40 a6 23 3d 27 75 26 bd 60 b7 fe 3b 38 8f 24 bd
       0.03995347 -0.04063907 0.007773325 -0.040175647
000050 bf 38 f4 3d 64 5b d0 bd 43 f3 d9 bd e1 cd a5 bc
       0.11924886 -0.101736814 -0.106421016 -0.020239772
000060 e5 1f 79 bc c0 0f c8 bc bb a8 01 3c 37 bd 0b be
       -0.015205358 -0.024421573 0.007913764 -0.13646398
000070 55 c1 35 be 7c b9 93 3d c6 bd 5f bb fe 29 0c 3e
       -0.17749532 0.07213113 -0.0034140213 0.13687894
000080 90 f8 0e be 81 47 87 3e 43 89 9a 3d bc f2 c7 3d
       -0.13962007 0.2642174 0.07545712 0.09763095
000090 6f b3 b3 3d 17 69 8b bd dc 04 35 bd 2b c7 0e bd
       0.087744586 -0.06807154 -0.044194087 -0.03485791
0000a0 0e d4 8b 3d 9c 85 31 bd 96 ce c2 3c 1a db 2d 3e
       0.068275556 -0.04334031 0.023780148 0.16978112
0000b0 3b 6e be be 9c 80 12 be 85 76 5b bd 54 79 1e 3d
       -0.37193474 -0.14306873 -0.053579826 0.038689926
0000c0 99 6f e2 bc 4d cd 03 bd 43 1f e0 3d 1a 23 90 be
       -0.027641105 -0.032178212 0.10943463 -0.2815178
0000d0 82 c9 3e 3d e8 5c ae bd c9 16 e6 3c b8 8b 1c 3d
       0.04657889 -0.08513814 0.028087037 0.038219184
0000e0 08 36 a1 3d a7 90 39 3d b0 dc 9a bd fd 19 86 bd
       0.07871634 0.045303967 -0.07561624 -0.065479256
0000f0 27 9d 53 3d 83 0e b1 bd b0 3f 30 bc 02 d9 4d 3e
       0.051663544 -0.08645346 -0.010757372 0.20102313
000100 bc 88 b1 bc 47 64 f0 3d 23 b8 e3 bd 18 be 0e 3d
       -0.021671645 0.117378764 -0.11119106 0.034849256
000110 f4 4a 9e 3d d5 a1 39 bd 7a 33 63 be 4a 99 c5 bd
       0.0772914 -0.04532035 -0.22187606 -0.09648378
000120 24 1d 66 3d 60 5c d7 bd d3 bc 0b 3e 51 10 2f be
       0.056180134 -0.10515666 0.1364625 -0.17096068
000130 46 b0 7c bd bd 32 8c bd 1d d0 e1 bd c4 c3 3c 3c
       -0.061691545 -0.06845615 -0.110260226 0.011521284
000140 a2 eb bd 3c 6e 10 e7 bd a2 fd fc 3d ad 99 17 be
       0.023183648 -0.112824306 0.12353064 -0.14804716
000150 43 04 7b bd e1 5f 5a bd 5c 3e ca 3c f3 4b 18 be
       -0.06128336 -0.053314094 0.024687938 -0.14872722
000160 ca 06 97 3e 64 a9 e5 3b c5 50 72 bc 0a f5 7d 3d
       0.29497367 0.0070087183 -0.014789765 0.062001266
000170 aa 71 67 bc e3 d6 52 bb 55 42 ca bd a5 da a3 3d
       -0.014126221 -0.003217154 -0.09875933 0.080006875
000180 36 56 27 bc 17 01 40 3d 7b 3f b0 3d c7 6f ac 3d
       -0.010213425 0.04687604 0.08605858 0.08419757
000190 66 6d 9c bc dd ce cd bd f1 51 96 3a de 74 d8 3c
       -0.019095134 -0.10049222 0.0011468512 0.026422914
0001a0 ee e4 18 be bb ca c7 bb bd 1c e8 bd 42 fa 84 3b
       -0.1493108 -0.0060971654 -0.113336064 0.0040581534
0001b0 57 6d a3 bc 5c db 57 3e ae 7e 8e be 14 ba 02 be
       -0.019949598 0.21079773 -0.27831024 -0.12766296
0001c0 49 49 f0 3d cf c1 69 bd b1 d9 83 3d 5f 0f 32 3d
       0.11732728 -0.057069596 0.06438006 0.04347169
0001d0 19 4b d6 3c fd 30 34 be 48 3f f7 3c c8 59 79 3d
       0.026158856 -0.17596813 0.030181542 0.060876638
0001e0 3d 5a 48 3d 01 c5 2d be 29 c1 95 3b 77 89 ff 3d
       0.048914183 -0.16969682 0.0045701456 0.12477391
0001f0 56 eb fd 3c 6d 6f a4 bc e0 66 60 3c 89 b2 1e be
       0.030996006 -0.020072663 0.013696402 -0.15497793
000200 6a b7 d7 3d f8 91 4f 3e 59 4c 94 bd 32 2f 10 3c
       0.1053303 0.20270526 -0.07241125 0.008800315
000210 83 c5 1c bc 00 aa 00 be 4d 89 77 bd 88 89 54 3e
       -0.009568575 -0.1256485 -0.060433675 0.20755589
000220 85 22 08 3c 0e d5 37 be 87 35 9f 3d ba 80 3e 3c
       0.008309011 -0.17952368 0.077738814 0.0116273705
000230 27 3b 0a 3e c4 d1 11 be 57 27 d7 3d 79 dd 41 bd
       0.13499127 -0.14240175 0.1050555 -0.047330353
000240 16 3a bb 3d 76 2b 89 bd 3d 2a d7 bd 14 c8 27 3c
       0.091419384 -0.06697743 -0.10506103 0.010240573
000250 47 dd d7 3d c4 e8 de 3b 74 ad ff bc cc 07 78 bd
       0.10540252 0.00680265 -0.031210639 -0.06055431
000260 fc 78 5d 3d cc 25 e7 bd 98 4c 0b 3e ed 44 4b 3d
       0.054070458 -0.11286506 0.13603437 0.04962628
000270 7d 2c 4d 3d 0e 2a b4 3c 75 45 d7 bd b1 4d 99 be
       0.050091255 0.02199271 -0.10511295 -0.29942086
000280 a2 c8 83 3d 7b 9e 4d bd 8c 4d 86 bd 6a cb c1 bc
       0.06434752 -0.050199967 -0.0655776 -0.023656566
000290 e6 9a e3 bc 38 cd 14 be 89 53 2c 3d c6 95 8f 3d
       -0.027783822 -0.1453141 0.042071853 0.07010989
0002a0 fe 7c 8f 3d 71 12 28 3d df fb 4b 3e e5 25 6e bd
       0.07006262 0.041033212 0.199203 -0.058141608
0002b0 c0 f7 58 be 2b bd 64 bd 7a a9 d7 3c fa 09 2c be
       -0.21188259 -0.055844467 0.02632593 -0.16800681
0002c0 4d 60 b3 be 00 2e c5 3d c7 4b d4 bd 3a aa 08 bc
       -0.3503441 0.096279144 -0.10366016 -0.008341366
0002d0 66 61 e1 bd 3f f6 df 3d 2f 37 d1 3d ed b4 82 be
       -0.110049054 0.109356396 0.102156036 -0.2552866
0002e0 a9 77 f6 3d db a2 c8 3d 03 7c 13 bc 55 7a ed bb
       0.12034542 0.09796687 -0.009001735 -0.007247249
0002f0 6d 49 f3 bd ee eb 27 3e 35 9f 08 be c7 fa 3d 3e
       -0.11879239 0.16398594 -0.13341983 0.18552695
000300 04 d4 4e 3d 3c 62 a7 bc e3 3f 8f bd 61 98 8a 3e
       0.050495163 -0.020432584 -0.06994607 0.2706938
000310 20 ad 72 bd 82 c0 0c 3e 10 d4 38 3e 2b 25 cf 3b
       -0.059247136 0.13745311 0.18049645 0.0063215694
000320 93 e3 4c 3c 8d eb 83 be 07 e4 8d bc ea 25 f6 3c
       0.01250543 -0.25765648 -0.017320646 0.030047376
000330 ea ca c8 ba 4c 1f 21 3d b0 0f 16 3c 47 65 b5 3d
       -0.0015319262 0.039336488 0.009159014 0.08857208
000340 df 0f eb bd 59 dd c9 bd a6 32 ba bc 81 13 82 3d
       -0.114776365 -0.09856672 -0.02272923 0.06351376
000350 48 3f 96 bd e3 d0 5e 3c 19 21 e4 3a 27 17 40 3c
       -0.07336289 0.013599607 0.0017404883 0.01172427
000360 8b 9b 95 bc 6e ab ef 3d fa 24 4a 3d 35 94 18 3d
       -0.018262645 0.117026195 0.04935167 0.037250716
000370 5e ab b5 bc 5d 7d 52 3d 26 fe eb bb fd 27 b2 bc
       -0.02217644 0.051389087 -0.0072019277 -0.021747584
000380 27 4c 8e bd 8e 02 d7 bc be 43 37 bd 05 ff 2e bd
       -0.06948119 -0.026246335 -0.04474234 -0.042723674
000390 d8 2b ee 3d 5d 78 9a 3d a8 fd bf 3d 6a 94 ea 3c
       0.11629456 0.07542489 0.09374553 0.028635222
0003a0 26 8c 1a 3d 57 9f aa 3b a9 bc 8e bd 93 d2 b0 bd
       0.037731312 0.005206983 -0.06969578 -0.08633914
0003b0 7d 1a 8f bd dc 8e 09 3e ad c1 3f 3c f3 68 a4 bc
       -0.06987474 0.13433403 0.011703891 -0.020069575
0003c0 ea a0 18 3e 93 8f 4d bd 70 ea 13 3d b0 19 66 bb
       0.14905134 -0.05018575 0.03611225 -0.0035110526
0003d0 d3 ac 7c 3c bc cf bc bb 6d 5d 1b bc 8f 0b 1a bd
       0.015422064 -0.0057620686 -0.009482724 -0.03760868
0003e0 04 f7 6e 3c b7 4c 66 3c e7 c2 eb bc c1 b0 6e bd
       0.01458526 0.014056376 -0.02877946 -0.058274034
0003f0 3d f5 b9 3c 4f fd b2 bd be f4 31 3e 9f 41 9c bd
       0.022699947 -0.08739721 0.17378518 -0.07629704

network_body._body_endoder.seq_layers.0.bias f4 [256]
000000 9b bb a5 bb 86 c5 f2 3c 32 fb 04 bd ce a7 84 3c
       -0.0050577647 0.029635202 -0.03246612 0.016193297
000010 06 1e 98 bc 94 ed 08 bd bd 25 89 bc 51 1f 97 bc
       -0.018569004 -0.033429697 -0.016741628 -0.01844755
000020 f6 0a 0e bd aa 04 16 bd 84 6d c8 3c 45 be 08 bc
       -0.034678422 -0.03662554 0.024466284 -0.008346145
000030 17 4d 3b bd b7 34 31 3c 69 a5 9d bc 5d 9b 95 bc
       -0.045727815 0.010815791 -0.019243913 -0.01826256
000040 b1 c3 57 bc 62 66 09 bc 9b c6 98 bc ed 63 50 3c
       -0.013169215 -0.008386226 -0.01864939 0.012719137
000050 58 49 52 bd 8b 20 28 3d 75 8f ef bc 41 1d 34 bd
       -0.051339477 0.04104666 -0.02924321 -0.04397321
000060 8b 9d ed 3c 80 d3 0b 3b 88 e1 2d bd 3c 9e 68 bc
       0.029005786 0.002133578 -0.04245141 -0.014197882
000070 a7 2a 91 bb c6 28 54 3c f7 a5 db bc da 1b e3 bc
       -0.0044301334 0.012949174 -0.026812537 -0.027723242
000080 3c 51 a8 bc 0c ce 5a bb 02 90 1d bd 33 e2 94 bc
       -0.020546548 -0.0033386974 -0.038467415 -0.018174266
000090 3b ca 15 bd 83 90 c8 ba 89 b3 be bc d5 ff 98 bc
       -0.036569815 -0.0015301857 -0.023278968 -0.018676678
0000a0 ab 21 49 3c a2 75 90 bc 13 f1 6d 3c d9 3b 37 3c
       0.0122760935 -0.017634217 0.014522809 0.011183702
0000b0 37 88 4a bd 84 2b a3 bc a8 1d 24 bd 11 bb 8d ba
       -0.04944631 -0.01991821 -0.040067345 -0.0010813196
0000c0 d5 ef a3 3b 58 5d 85 bb 14 56 d1 bc be 4f a7 3c
       0.0050029554 -0.0040699653 -0.02555374 0.020423766
0000d0 6e 3d 68 3c b9 40 2c bd 36 09 1c bd 6d 51 eb bc
       0.014174802 -0.04205391 -0.03809472 -0.02872535
0000e0 68 6e d1 bb 6e f7 4d 3a 07 8d 9b bc 84 6a 25 bd
       -0.0063913353 0.00078569993 -0.018988146 -0.040384784
0000f0 be 8c ba bb 88 3f 09 bd a4 69 98 3c 97 b5 06 bd
       -0.0056930473 -0.033507854 0.01860506 -0.03288802
000100 05 57 4d bd 03 98 5a ba 5d 07 b9 bc 61 3e 3c bc
       -0.050131816 -0.00083386916 -0.022586519 -0.011489482
000110 d3 b7 01 3b 6a 13 fb bc ba 7c f6 3b 1b 78 c7 bc
       0.0019793406 -0.030648906 0.007522193 -0.024349263
000120 f1 77 9d 3c 77 da 13 bb b8 54 d9 bc b7 0c e1 b7
       0.019222232 -0.0022560635 -0.026529655 -2.6828011e-05
000130 0d 2b 2f 3b 43 9d 39 3c 16 6d 04 bd 0f 7d da bc
       0.002672854 0.011328998 -0.032330595 -0.02667096
000140 7e 3f c6 bc fe a3 80 bb 08 e1 0e bd b4 8b a7 3a
       -0.024200197 -0.0039257994 -0.034882575 0.0012782724
000150 84 d8 34 3c 6c 2f a0 bc 2f 8b 30 bc 15 da 9f bc
       0.0110379495 -0.019553863 -0.010775371 -0.01951317
000160 55 68 b3 3c 5f fa bb bc 99 61 d8 bc c5 37 69 3c
       0.021900335 -0.022946535 -0.026413726 0.014234488
000170 89 c5 ea 3a 5b df eb bc 64 16 d3 3c ee b1 9f bc
       0.0017911653 -0.028793028 0.025767513 -0.019494023
000180 47 2e 25 bd 6a 53 ec 3b f5 4f ae bc 87 21 39 3d
       -0.040327337 0.007212092 -0.02127836 0.04519799
000190 9f 70 9e bc 96 5d 47 bd 0c ae 92 bc ae 2f 00 bd
       -0.019340811 -0.048673235 -0.017905258 -0.03129547
0001a0 e2 c3 54 3c fe a5 0c bc 5e 46 c2 3c cc 82 a5 bc
       0.012986155 -0.0085844975 0.023715194 -0.02020397
0001b0 39 bb 31 bc 6b 21 9b bc dd e3 ee b9 f6 c6 3a 3a
       -0.01084786 -0.018936833 -0.0004556467 0.00071249844
0001c0 c5 ff 8e bc 01 21 ce bc b4 d0 e2 bb 97 7c 2f bd
       -0.017455945 -0.025162222 -0.006921852 -0.042843428
0001d0 3c 5d 14 bd 9b 32 83 bb a1 7f 8e bc 56 88 a7 bc
       -0.036221728 -0.0040038354 -0.017394843 -0.020450752
0001e0 45 ee da 3c 48 21 f0 bc 87 a0 b5 bc e4 cd 34 bc
       0.026724944 -0.029312745 -0.022171272 -0.011035416
0001f0 39 6a be 3c dd 5f 3d 3d e5 12 8b bc 2a cb 90 bc
       0.02324401 0.046234 -0.016976783 -0.017675001
000200 67 86 91 bc 94 df 6f bc d0 1b e3 3c 56 ef 16 3c
       -0.017764283 -0.0146407075 0.027723223 0.009212336
000210 ec 51 2b bd ab d5 f1 bb 0d 75 2b 3d 8f 2a 01 bd
       -0.041826174 -0.0073802075 0.041859675 -0.031534728
000220 47 0d 9f 3b 82 b1 d7 ba bb d6 4a bc f9 c9 99 ba
       0.0048538777 -0.00164561 -0.012380297 -0.0011733166
000230 b1 20 3a 3b 0f 38 6f bd 59 82 d9 ba 78 55 ae bc
       0.0028400833 -0.05840307 -0.0016594633 -0.021280989
000240 a9 0f eb bb af cb b2 bc cd ff e3 3b f5 c7 d6 3b
       -0.0071734977 -0.02182564 0.006957984 0.0065545985
000250 91 26 05 3d d9 1e df bc 6b 19 3f 3c 6e df c4 bc
       0.032507483 -0.027236389 0.011663775 -0.02403232
000260 84 8e 2e 3c 0f 82 42 bd 47 4b 01 3c f0 5c 81 bc
       0.010654096 -0.047487315 0.007891483 -0.015791386
000270 17 e6 f9 bb 2f ce 24 bd 74 62 29 bc 36 aa 9c 3c
       -0.007626306 -0.040235694 -0.010338414 0.019124132
000280 40 38 08 bd af a2 b9 bc 63 c1 0b bc 9b 18 72 3c
       -0.03325677 -0.022660581 -0.008529994 0.014776374
000290 70 fb 9e 3b 72 c8 12 3d a7 23 ca bc 95 7e 14 bd
       0.004851751 0.03583569 -0.024675203 -0.03625353
0002a0 55 e8 89 bc c8 72 08 bd 0b ed 3b bd 72 9b c6 3b
       -0.016834417 -0.03331259 -0.04588036 0.006061011
0002b0 8c fa 76 3c 3e 4c 58 bb 2d dd 1c bc 63 20 0b bc
       0.0150743835 -0.0033004428 -0.009574217 -0.008491608
0002c0 ab ca 42 3c e3 7b ea 3b 9b ec 79 bc 48 a5 be bc
       0.01188914 0.0071558817 -0.015254165 -0.023272172
0002d0 68 72 26 bd 2c 70 60 bc 34 fa 1c bd 8a 8c ac 38
       -0.04063645 -0.013698619 -0.03832455 8.2277766e-05
0002e0 4a 4a 0d bd cd 5f b8 3c 4a 61 fc bc d3 29 1c 3c
       -0.034494676 0.022506619 -0.03080811 0.009531456
0002f0 cd 07 3a bc 04 73 ef 3b 8f 4c 01 3d 2c 5f 26 bc
       -0.011354399 0.007307412 0.031567153 -0.010154527
000300 9b fb 1a 3d 57 99 2e 3c 02 bc c4 3c 5f d1 3e bd
       0.037837606 0.010656676 0.02401543 -0.04658639
000310 37 96 59 3b 75 94 2f bd 71 12 b3 bc b8 86 0d 3b
       0.0033201107 -0.04286619 -0.02185938 0.0021595191
000320 59 ae 25 bd be d7 fa bc 3f d5 c4 bc 3b e9 27 bd
       -0.040449474 -0.030620452 -0.024027465 -0.04099391
000330 cb d2 98 bc e1 77 21 bd bb 84 48 bc 9a 92 b4 bc
       -0.018655201 -0.039420966 -0.012238677 -0.022042561
000340 d2 c9 79 bc ee d5 ee bc 1e d2 0d bd db 0c 3a bd
       -0.015245872 -0.029154744 -0.03462421 -0.045422416
000350 35 a1 d6 3b 9b e0 86 bc f7 ed 28 bc 88 25 59 3c
       0.006549979 -0.016464522 -0.0103106415 0.013253577
000360 1b 5d ed 3c 96 5b 83 bd ae 9f be bc c1 64 f5 3c
       0.02897506 -0.06413953 -0.0232695 0.02995527
000370 90 37 18 bd a2 a4 91 bc f0 91 a3 ba 3a 8b 20 bd
       -0.037162364 -0.017778698 -0.0012479406 -0.039195277
000380 2d b0 58 bc fa b9 84 3c d5 d9 84 bc f4 6d 14 bd
       -0.013225597 0.016201962 -0.016217152 -0.036237672
000390 ed f5 82 bc 3b c4 22 bc 62 2f 50 bc 28 3b 46 3c
       -0.015986407 -0.00993448 -0.012706609 0.012099065
0003a0 fc 38 ce 3b 9e 81 b9 bc ba 13 d5 3c a0 a9 03 bb
       0.006293414 -0.022644814 0.026010383 -0.0020090118
0003b0 86 47 16 3d 92 ca 01 bc cf c6 cc 3a a2 2b 87 bc
       0.036689304 -0.007921832 0.0015623214 -0.016500298
0003c0 f7 4e 0e 3d f2 53 2e bd 44 7e b7 ba fd cd ba bc
       0.034743275 -0.042560525 -0.0013999422 -0.022803301
0003d0 e0 e5 f6 bc bf f9 a8 bc 81 58 eb 3a 91 5b d6 bc
       -0.03013891 -0.0206269 0.0017955453 -0.02616671
0003e0 7b 9e bc bc 52 dc 13 bd 51 f1 b7 3c 2f 37 83 ba
       -0.023024788 -0.036098786 0.022453936 -0.0010010953
0003f0 f3 40 9f bc 2d a7 2a bd 35 78 12 3c 54 1c 65 bb
       -0.01944015 -0.041663337 0.008939792 -0.0034959512

network_body._body_endoder.seq_layers.2.weight f4 [256, 256]
000000 e2 e4 cf 3d c4 c3 49 3d 42 2f 92 bb e7 86 f4 3c
       0.10151078 0.049258962 -0.0044612 0.029849483
000010 59 e3 ac 3d f3 e2 eb bc fb 4a a9 3c c1 17 17 be
       0.084418006 -0.028794741 0.020665636 -0.14755155
000020 fe 53 c3 3d 38 a6 d2 3d 6c 9c 9a 3d 21 93 43 bd
       0.095375046 0.1028561 0.07549366 -0.047747735
000030 48 6f a1 3c 17 0b 65 be 21 bc ae bd 80 da 61 be
       0.019706383 -0.22367512 -0.085319765 -0.22056007
000040 bf 14 33 3c 97 f4 80 3d 97 c4 f7 bc 48 fc d0 bc
       0.010930239 0.06296652 -0.030245109 -0.025510922
000050 0a c4 de bc 8c 67 10 be 45 cc 8a bd 5b 36 43 3e
       -0.027193088 -0.14102 -0.067772426 0.19063704
000060 6e bd 5d 3e 29 25 15 3d 65 b8 65 bd 92 96 0a 3c
       0.21654293 0.03641239 -0.056084055 0.00845875
000070 4d 75 4f 3d d0 d7 cc 3d 89 2e c3 bb 9e 2c c6 3d
       0.050648976 0.100021005 -0.005956475 0.09676479
000080 0d 23 bd bd 73 30 59 bc 9c 82 7e 3c 07 15 9d 3d
       -0.09235201 -0.01325618 0.015534069 0.07670026
000090 92 c1 8d bd bc 90 fa bd 9f d3 08 be 85 d4 15 3d
       -0.06921686 -0.12234637 -0.13361977 0.036579628
0000a0 ac 18 f4 3b e3 70 af bd 06 cc 2c 3d a0 e8 ae 3d
       0.00744923 -0.08566453 0.04218676 0.085404634
0000b0 46 f9 0e 3b f1 64 ce 3d e1 86 e4 3d 86 43 9a 3d
       0.002181606 0.10077847 0.111585386 0.0753241
0000c0 ee 40 aa bc 6d 79 0b be ba 89 9f bd d3 2f d3 bd
       -0.020782914 -0.13620539 -0.07789941 -0.10311856
0000d0 23 72 ca 3c b7 26 d5 bd 73 62 13 be 5e 2d 56 be
       0.024712628 -0.10407775 -0.14393024 -0.20915744
0000e0 91 a6 32 bd a1 e5 a4 bd 17 c9 41 3c f6 2c 10 3d
       -0.04361588 -0.08051611 0.011827729 0.035199128
0000f0 51 ea 3f 3c e1 cd 81 bd 8a 3d 00 3e f8 26 0d 3c
       0.01171358 -0.063380964 0.12523475 0.008615248
000100 c5 88 07 be d4 74 6e bd 38 38 0e 3e fb fb 53 bd
       -0.13235767 -0.058216885 0.13888633 -0.05175398
000110 d2 a6 73 3d de 14 f7 bc 81 0e ae bc e9 b3 7c 3b
       0.059485264 -0.030161317 -0.02124715 0.0038559383
000120 75 13 7d bd 90 32 87 3b 04 78 cc 3c c7 f4 e5 b9
       -0.061786134 0.0041259006 0.024959572 -0.00043860657
000130 b1 ed 1e 3e c4 31 a2 bd 66 c9 77 bd 21 7c 03 3d
       0.1552036 -0.07919648 -0.060494803 0.0321008
000140 1d a4 c8 bd e2 de b7 3c d9 6e 83 bc 3a 71 80 3d
       -0.09796927 0.022445146 -0.016044067 0.06271596
000150 db 09 39 bc 91 10 7f bc 6b 7f 34 3d 8f 34 06 3d
       -0.011293854 -0.015567915 0.044066828 0.032764968
000160 3e cc b6 bd 18 c2 8d 3c 2b d2 22 bd cc 6a 5f be
       -0.08925675 0.017304465 -0.039751213 -0.21818084
000170 13 a4 dd 3b 3b 9d 72 3d 09 1a d2 3c 79 9c ef 3d
       0.006763944 0.059231978 0.02564718 0.11699767
000180 fa 0b 0a bd 8b 47 cd 3d cc 92 86 3c a7 3b 59 bd
       -0.033702828 0.10023411 0.01642742 -0.053035405
000190 25 db eb 3d f0 05 72 3d 79 e3 4f 3d 69 87 89 bd
       0.11516408 0.059087694 0.050754044 -0.067152806
0001a0 3a 8f 70 bd d5 c5 89 bd 67 cf 14 bd 64 67 a9 3b
       -0.05873034 -0.067271866 -0.036330607 0.005169796
0001b0 3a 5b 09 3e d8 b5 5f 3c 84 8c cf 3d 99 9e b5 3d
       0.13413706 0.013654195 0.10134223 0.08868141
0001c0 11 63 1f be d9 9b b2 3d ae 6f 41 bd 52 56 72 3d
       -0.15565135 0.08721132 -0.047225647 0.059164353
0001d0 b1 4c 1f be ad 58 27 bc 03 17 e5 3d e8 d3 fc 3d
       -0.15556599 -0.010214013 0.1118603 0.123451054
0001e0 7e bf 29 bd 58 aa 06 be bd 76 45 bd 0c 94 3d bd
       -0.041442387 -0.13150918 -0.04820894 -0.046283767
0001f0 ea 63 ea bd 2e 83 4e bc 31 02 92 bd 6c 11 11 be
       -0.11444838 -0.012604518 -0.07129324 -0.14166802
000200 2c ee 96 bb be 32 bd bd 63 42 fc bd 5c 7c da bd
       -0.004606029 -0.09238194 -0.1231735 -0.10668251
000210 f7 93 87 bd 9a 6e 2f 3e 1e 30 13 bd e9 81 3f bd
       -0.06620019 0.17132035 -0.03593456 -0.04675475
000220 35 4d 54 3d 06 e6 6d 3d 0c 49 e9 3d 30 10 df bb
       0.051831443 0.058080696 0.11390886 -0.0068073496
000230 20 3b e0 3d 25 a8 5d 3d 87 f8 44 3e 96 4e 54 3d
       0.10948777 0.054115433 0.1923543 0.051832758
000240 c1 d6 64 bc ca ea fd bd 13 b1 a5 bc 8d 5c 18 3e
       -0.013967217 -0.12398298 -0.020226037 0.14879055
000250 41 18 31 39 c5 12 d3 3d db 3f 01 3e 46 f2 57 3d
       0.0001688907 0.103063144 0.12622015 0.052721284
000260 27 e1 0b bd f9 d7 db 39 27 43 a1 bd 86 01 ce bd
       -0.03415027 0.00041931847 -0.078741364 -0.10058884
000270 1b 96 d6 bd a6 28 85 ba e4 18 a7 bd e1 9a b7 bc
       -0.10477849 -0.0010159209 -0.081590444 -0.02241272
000280 57 ea 87 3d be e9 ca 3b c6 b9 20 bd 4e 4c d6 bd
       0.06636494 0.006192415 -0.039239667 -0.10463773
000290 9e d9 32 bc f5 ec 78 3c d8 87 d9 bc 62 6f 6d 3c
       -0.010916142 0.015193214 -0.026554033 0.014491888
0002a0 70 bc db bd 93 d6 d7 bd 65 35 3d bd 51 54 c7 3d
       -0.10729301 -0.10538974 -0.0461935 0.09732879
0002b0 73 cd 07 bd 4b 75 29 bc 68 7b c4 bd 5f cc 10 3e
       -0.033154916 -0.010342906 -0.095938504 0.14140461
0002c0 df e5 9c bd d8 fd 05 bd e4 67 af bd 12 34 72 3d
       -0.07661032 -0.032712787 -0.085647374 0.05913169
0002d0 d9 03 30 be 00 f0 ee 3d 82 4e c6 bd f0 16 87 3d
       -0.17188968 0.1166687 -0.09682943 0.06596172
0002e0 c4 da 9b 3c c8 0c 27 3d df 27 be bc 92 38 b3 bd
       0.019025214 0.040783674 -0.023212371 -0.08751024
0002f0 2e 20 e6 3d 70 36 94 bd 89 b4 00 bd 59 1b 22 3c
       0.112366065 -0.07236946 -0.03142217 0.0098942155
000300 aa 4e 0a be 59 8d a1 bc d4 0b 1e be a7 d9 c9 bc
       -0.1350657 -0.01972072 -0.154342 -0.024639918
000310 64 72 cc bd a1 25 47 3b ac 42 f6 bd 2d 4c 82 bd
       -0.09982756 0.0030387419 -0.120244354 -0.063621856
000320 8b 09 8a bb 66 f9 0f 3e 04 47 bd 3d 95 62 72 3d
       -0.0042125634 0.14059982 0.09242061 0.059176046
000330 07 49 92 3d cb c2 d4 3c fe a2 1a 3d 68 3a 3a bc
       0.07142835 0.02597179 0.037753098 -0.011366464
000340 52 86 44 bb bc 90 bf bd 6e 6e a9 3b 96 a8 92 bd
       -0.0029987288 -0.09353778 0.005170635 -0.071610615
000350 68 8a e2 bd 3c 10 81 bd 66 ab 0e bd 82 3b 07 3e
       -0.11061555 -0.063019246 -0.034831427 0.13206294
000360 01 ad e5 3d 0a ee ca bd e9 65 fa 3c 31 54 89 3a
       0.112146385 -0.099086836 0.030566173 0.0010477362
000370 7a 1d 1d 3d 64 f6 72 3d 9e 2c 68 3d 99 e3 bf 3d
       0.03835819 0.059317008 0.056683175 0.09369583
000380 f9 91 c4 bd 0e 80 63 3e 76 32 9b 3a 28 33 5f bc
       -0.095981546 0.22216818 0.00118406 -0.013623036
000390 5b 89 6a 3d 5c 6d e4 bc 12 12 a5 bd d8 87 ed 3c
       0.0572599 -0.027884178 -0.08060087 0.02899544
0003a0 b3 6b 80 3d de 8a be bc f1 dc 1e bd 24 e9 bc bd
       0.06270542 -0.023259576 -0.038784925 -0.092241555
0003b0 8f 50 86 bd 84 34 a4 bd 47 e1 b4 3c ae ea 0d be
       -0.06558334 -0.08017829 0.022080077 -0.13859054
0003c0 1f 1a 1c 3c eb e3 82 bd dd 44 03 be 0d 3c 06 3d
       0.009527712 -0.06391128 -0.12819238 0.032772113
0003d0 d6 4c 5a bc ea c2 8c 3c 34 31 57 3d b8 db 55 bd
       -0.013323983 0.017182786 0.052537158 -0.052211493
0003e0 77 d0 ed 3a 78 77 f5 3b 91 6f 67 3d 51 90 c9 3b
       0.0018143792 0.0074910484 0.056502882 0.006151237
0003f0 86 b4 7f bd b3 e6 51 bd 73 c0 3d bc 6f 02 91 bd
       -0.06242802 -0.051245403 -0.011581528 -0.07080542

network_body._body_endoder.seq_layers.2.bias f4 [256]
000000 d9 c3 78 ba 92 56 2a bd cd 72 05 3c de 4c fc bb
       -0.0009489633 -0.041586466 0.008145046 -0.007699593
000010 76 27 63 3b 29 38 08 bc ba b5 9e bc 8d e0 2c 3d
       0.0034660972 -0.008314171 -0.019373763 0.042206336
000020 56 80 2a 39 35 7f 12 3c 47 92 e0 bb 65 e8 7e bc
       0.00016260272 0.008941461 -0.006853375 -0.015558337
000030 c7 70 12 3c f2 3c 87 bc 65 ea 98 bb 00 96 ac bc
       0.008938021 -0.016508553 -0.004666614 -0.02106762
000040 fc dc 1b bd 28 71 51 bc 7b de 8f bc 59 a6 3f bc
       -0.038052544 -0.012783326 -0.017562142 -0.011697375
000050 dd 21 b9 bc df 1c cf bc 00 a6 03 bd 1b 75 a5 3c
       -0.022599155 -0.025282321 -0.03214073 0.020197442
000060 e8 95 1f bc 63 0d 45 3c af 5a 10 bc ff 64 16 bc
       -0.00974033 0.012027117 -0.008810683 -0.009179353
000070 23 87 91 bc b0 91 3e bd f3 97 c0 3c 9d ab 1b 3c
       -0.017764634 -0.046525657 0.023509955 0.009501365
000080 ef cb 89 3a bd a4 9b 3b 9e 46 a6 3b e0 d9 29 bd
       0.0010513047 0.004749863 0.005074336 -0.041467547
000090 5a ad c1 ba f5 dd 44 bd 8b c4 49 3d 93 d7 be 3c
       -0.0014776394 -0.048063237 0.049259704 0.023296153
0000a0 0f 59 98 bb d0 e7 88 3b 9a 9c 04 3b f3 d1 24 3c
       -0.0046492885 0.004178025 0.0020234943 0.010059821
0000b0 9a cf 12 3d 6e 6d 09 bd 0a a3 24 bd 21 35 f6 bc
       0.035842516 -0.033551626 -0.04019455 -0.03005463
0000c0 5f 69 bc bc aa 96 00 bd 9c e6 17 3d be 26 81 bc
       -0.022999464 -0.031393684 0.03708516 -0.015765544
0000d0 ed db f4 3c d4 12 80 bc b7 57 f6 bc 47 08 8a 3c
       0.029890025 -0.015633978 -0.030071123 0.01684965
0000e0 cc c6 8c bc 37 dc b3 bc 3d 18 b6 3c 17 2f e8 bc
       -0.017184637 -0.021955593 0.022228355 -0.028342767
0000f0 9a 74 5a 3b 56 45 84 bb 7f 6e cd 3c 26 86 64 ba
       0.003333366 -0.004036586 0.025077103 -0.00087174994
000100 e7 98 16 ba d3 ec ce bc 54 a7 07 bd ed 78 1b bd
       -0.000574483 -0.025259411 -0.03311856 -0.03795712
000110 27 e4 4e bc f5 78 24 3c 56 28 df bc 63 17 ca 3b
       -0.012627638 0.010038604 -0.027240913 0.0061673387
000120 0f d1 2b bc 65 1c f6 bc 5a f8 2b 3c cc 3f c6 bc
       -0.010486855 -0.030042836 0.010496223 -0.024200343
000130 f2 8e 36 3c e9 8f 03 bd 21 e9 83 3a ec 5e ed 3b
       0.011142479 -0.032119665 0.0010063985 0.0072439816
000140 b0 00 81 bb 52 af a2 bc bc ba 97 bc d9 26 4a bc
       -0.0039368495 -0.01985899 -0.01852166 -0.012338364
000150 1c 07 80 3d dc 3e c8 bc 38 a6 87 bc ff b2 53 bc
       0.06251356 -0.024444036 -0.016558751 -0.012921094
000160 7f ce 4c 3c a2 ab 1e 3d 0c d0 2f bd 88 f0 db 3a
       0.012500404 0.0387379 -0.04292302 0.0016780058
000170 a6 0a b2 bc 5b 11 41 3c 77 09 a0 bb 9d 54 71 bc
       -0.021733593 0.011783923 -0.004883941 -0.014729646
000180 4f 22 c2 3c 3f e9 0b 3d c9 41 bb 3c fa bc 7d 3c
       0.023698 0.034157988 0.022858517 0.01548695
000190 d1 c7 67 bb 55 86 5e 3c c4 77 4c bd b1 c6 a3 bc
       -0.0035366903 0.013581832 -0.049918905 -0.019992204
0001a0 6d 01 f0 bc 0b e7 8a bc 81 0a 80 bc dd f4 3f bc
       -0.029297555 -0.016955873 -0.015630009 -0.011716095
0001b0 21 ef d1 3b 65 29 82 3c ca 7c a6 bc 3a b0 fa bc
       0.00640668 0.01588888 -0.020323176 -0.03060161
0001c0 f5 05 cc bc 7f 85 28 bd bf 6f c4 bc 18 ff 13 3d
       -0.024905184 -0.041142937 -0.023979066 0.03613195
0001d0 f8 b8 bf 3b c2 46 70 3c 9e 92 a2 ba dd 97 81 3b
       0.0058509074 0.0146653075 -0.0012403314 0.003954871
0001e0 ac ad 44 bc 96 8b 36 bd 94 55 0b bd 1f 8b 01 3d
       -0.012004297 -0.044566713 -0.03401716 0.031626817
0001f0 2c ab c0 bc 9a 06 d4 bc 6f e4 08 3c 48 63 28 3c
       -0.023519121 -0.025882054 0.008355244 0.010277577
000200 55 0a ee bc 4f e3 91 bb bc 10 10 bd 08 2e 1f 3d
       -0.029057661 -0.004452146 -0.03517221 0.03886226
000210 fc b6 39 3d 20 46 84 3c 61 0c 86 bc 29 ff 80 3b
       0.045340523 0.01614672 -0.016363325 0.0039366675
000220 df c5 8e 3b 82 eb 42 bc a2 07 3c bd 6a 2b 45 bd
       0.004357084 -0.01189697 -0.045905717 -0.048137106
000230 4d ba b6 3c 19 01 09 bd 77 97 35 bc 82 5b 9c bc
       0.022305632 -0.033448312 -0.011083475 -0.019086603
000240 f0 1e 12 3d c4 78 25 bd a7 d4 a3 39 b6 25 30 bc
       0.035674036 -0.040398374 0.0003124822 -0.0107511785
000250 5e 89 35 bc 48 8f 0a bd 34 5a d7 bc b6 13 09 3d
       -0.011080114 -0.03382805 -0.02628813 0.033466063
000260 bf 90 96 bc fe b3 f8 3b 38 84 d6 bc 93 f4 ae bc
       -0.018379567 0.007589816 -0.026186094 -0.021356856
000270 09 d8 43 bd 1f 20 98 3c 3d ee 03 3d 59 b4 14 bd
       -0.04781345 0.018570004 0.032209624 -0.036304805
000280 89 84 3b bc 27 ad 03 bd 23 d2 09 bd 1c 52 23 bd
       -0.011445173 -0.032147553 -0.033647668 -0.039873227
000290 4b 20 6c 3c 85 fe de bc 9e 16 cd bc c5 74 08 bd
       0.014411996 -0.027220974 -0.025035199 -0.033314485
0002a0 f6 1d 54 bc 72 df 1c 3d 88 38 de bc 4c db ba 3b
       -0.012946596 0.03829903 -0.027126566 0.0057024118
0002b0 60 86 2a 3d 48 14 1f ba 61 b6 f0 3b 20 82 77 bc
       0.041632056 -0.0006068391 0.00734596 -0.015106708
0002c0 8a f7 c6 bc 12 a8 e8 bc 85 f6 ad bb 5d 6b 9d 3c
       -0.024287958 -0.028400455 -0.0053089284 0.019216234
0002d0 58 14 51 bd 4e 88 0b 3c c5 28 21 bc 70 56 1d 3d
       -0.051044792 0.008516384 -0.00983638 0.03841251
0002e0 f2 db 26 3d f0 6e 95 bc ce 51 6f bc 58 a0 8a bc
       0.0407371 -0.018241376 -0.014606906 -0.016922161
0002f0 5f c6 4d bc 39 00 24 bd da 21 e7 3c a3 e5 09 3d
       -0.012559502 -0.040039275 0.028214384 0.033666264
000300 de 13 87 bc 4a 53 b9 b9 cc 61 ca 3c ed db 3f 3d
       -0.016488966 -0.00035348005 0.024704836 0.046840597
000310 b1 15 cd 3c 31 9d c1 bc 56 9b e6 bc d5 e8 2b bd
       0.025034757 -0.023634525 -0.028150242 -0.041970093
000320 c8 50 fb bb ee fa 41 3c aa f7 9c ba 3f 43 b0 bc
       -0.007669542 0.011839611 -0.0011975665 -0.02151644
000330 1c 41 5f bd eb 03 05 bd 80 8f 03 3c ec c9 6c bc
       -0.054505453 -0.03247444 0.008029819 -0.014452439
000340 c1 23 81 bc 78 83 ad 3b 9d ff 94 bc 19 8e 2a bc
       -0.01576412 0.0052952133 -0.018188292 -0.010409855
000350 9d a6 ec bb 29 54 62 bd 51 e9 d9 bc f3 00 a0 bc
       -0.0072220103 -0.055256043 -0.026600512 -0.019531703
000360 88 6b 31 3c 5e 19 6c 3c 6a 6b 30 3c 72 41 a5 bd
       0.01082886 0.014410345 0.010767797 -0.08069123
000370 ca 7f 01 bd 94 66 5b bd 9b cf 04 bd b4 c3 fe bc
       -0.03161601 -0.053564623 -0.03242455 -0.031099178
000380 9c d5 ad bc a3 26 f5 bb c9 d4 09 3d ba 9a 15 bd
       -0.021220021 -0.0074814125 0.033650193 -0.036524512
000390 32 fc d8 bc e4 c3 26 3b 9b 4a 06 bd e6 3b 36 3d
       -0.026487444 0.002544635 -0.032785993 0.044490717
0003a0 ba cd ac 3c 7b c9 f3 ba e1 69 1b 3d 34 35 87 bc
       0.021094192 -0.0018599475 0.03794277 -0.016504861
0003b0 8a 01 72 bd 7a f8 63 bd fa e6 92 bc 2c 4f 04 3d
       -0.0590835 -0.055656888 -0.017932404 0.032302067
0003c0 44 d7 cf 3a 92 92 12 bd 72 66 4c 3d 63 9f 6e bd
       0.0015857001 -0.03578431 0.049902387 -0.05825747
0003d0 17 5a 59 bd 44 72 28 3d 28 91 1e bd 04 84 6d bc
       -0.053064432 0.041124597 -0.03871265 -0.014496807
0003e0 ea 85 9a bc 00 a6 7b bc de 1b be 37 b9 9f 7f 3c
       -0.018862683 -0.015359402 2.2662742e-05 0.015602046
0003f0 0c 6f 0a bd 3c ba fe 3b 75 03 02 bd 0d c1 9e bc
       -0.03379731 0.0077736657 -0.031741578 -0.019379163

network_body._body_endoder.seq_layers.4.weight f4 [256, 256]
000000 0d 1b 12 3d 59 4f df bd c4 1c 1b bd 8d c6 a9 bd
       0.03567033 -0.10903806 -0.03786923 -0.08289824
000010 92 2d ae 3d 16 de cf bd cf a5 22 be e5 30 03 3e
       0.085047856 -0.101497814 -0.15883563 0.1281162
000020 b6 0f 03 bd d1 4f 17 3c a7 b8 63 3b c7 15 06 bc
       -0.031997405 0.009235338 0.0034747513 -0.008183903
000030 0e d5 04 bd ef 5a 96 3d 0e b3 4e bd 36 13 6a 3c
       -0.032429747 0.07341563 -0.05046373 0.014286807
000040 b4 5e ec 3d 83 28 4f bd 5c 29 8e bd 67 29 c7 bd
       0.11541501 -0.050575744 -0.069414824 -0.09724694
000050 64 ac d2 3c 2b ca 69 bd 94 3b 96 3d 1e af a9 3d
       0.025716968 -0.057077568 0.073355824 0.08285354
000060 50 ca f4 3c 81 90 4d be 1e 6d f8 bd d0 b1 ed bc
       0.029881626 -0.20074655 -0.121301875 -0.029015452
000070 97 fb ca bd da 84 a0 bd 2b 27 67 be b4 1c 2c bc
       -0.09911268 -0.078378394 -0.22573535 -0.01050489
000080 38 17 8a bb 4c ee f2 bb 28 66 92 bc a0 8e 9a bd
       -0.0042141937 -0.007413661 -0.017870978 -0.07546735
000090 da bb a8 3d 0d f2 84 bd 79 65 25 3c fe 4a cc 3d
       0.08238955 -0.0649148 0.010094994 0.09975241
0000a0 5a 10 74 bd dd e9 0d be 71 88 13 be 9c 30 1b bd
       -0.059585907 -0.13858743 -0.14407517 -0.037888154
0000b0 f4 e3 2a 3d 0d 9a 00 be 75 d2 f8 bd 65 70 87 bd
       0.0417213 -0.12558766 -0.121495165 -0.066132344
0000c0 73 60 67 be 18 1b 23 be 78 30 38 bd a6 c6 04 bd
       -0.22595386 -0.15928304 -0.0449681 -0.03241601
0000d0 9f d8 85 bd be d0 90 3d 8c 84 3f 3d a9 ac 41 3d
       -0.06535458 0.070710644 0.046757266 0.047283802
0000e0 c0 93 b1 bd 22 e7 92 3d 87 52 85 bd 73 22 81 bd
       -0.08670759 0.07172991 -0.065098815 -0.06305399
0000f0 e8 f1 2d be 69 6a 9d bd 91 04 12 3e 8f bd 9e bb
       -0.16986811 -0.07686312 0.14259554 -0.0048443745
000100 dc d9 15 3b 9d 75 3b 3c 29 1d 15 ba 40 21 8a 3d
       0.002286545 0.011441615 -0.0005688244 0.06744623
000110 4c 62 92 bc 39 dc 95 bd ba 67 7b bd a9 fd 85 3d
       -0.017869137 -0.07317395 -0.06137822 0.065425225
000120 88 5a ab bd c4 15 87 bd dd 15 99 3c e6 d3 5a 3c
       -0.08366877 -0.06595948 0.018687183 0.013356185
000130 8f 18 c1 bd 9c a8 91 bd 48 48 a2 bc a1 4f 8b 3d
       -0.09428512 -0.07112238 -0.019809857 0.068022974
000140 4f b1 45 3d 88 ce 45 3d c3 f0 91 3c d8 74 c8 3d
       0.048264798 0.048292667 0.017815 0.09787911
000150 5a d2 e1 3d 28 d5 9b 3d 3c 4d 24 3d af c2 cb bd
       0.110264495 0.07609016 0.04011272 -0.09949242
000160 51 a1 57 be 56 f9 7d bd fc f6 2a bd ce df c2 bc
       -0.21057631 -0.062005363 -0.04173945 -0.023788359
000170 5d ba c7 bd 62 49 96 ba 80 89 ec bd 46 1c 07 be
       -0.09752343 -0.0011465962 -0.115496635 -0.13194379
000180 c1 2a 90 3d e7 f3 bb bd b9 2f f7 bc c9 01 60 3b
       0.07039405 -0.0917738 -0.030174123 0.0034180752
000190 07 cf 61 bd 44 59 51 be 42 0f a2 bd 3f 35 e0 bd
       -0.055129077 -0.20444208 -0.079130664 -0.10947656
0001a0 d7 55 b3 bd 00 cd c7 3c 2f c0 f5 bc 70 68 81 bd
       -0.08756607 0.024389744 -0.029998867 -0.06318748
0001b0 c0 58 9a bb 4e dc 51 3d 5a 79 cf bd 9d 94 10 be
       -0.004710287 0.05123549 -0.10130568 -0.14119191
0001c0 f0 7e d3 bd 64 ec 9f bd 8a d4 50 3d 22 72 f6 3c
       -0.10326946 -0.0780876 0.050983943 0.03008372
0001d0 86 d2 69 3d 89 c3 c3 bb 44 64 c2 3d a4 99 ce 3d
       0.057085536 -0.0059742373 0.094917804 0.100878984
0001e0 dd 52 e8 bb 6e e6 8d bd 83 35 39 be fa a4 57 bc
       -0.007089956 -0.069287166 -0.1808682 -0.013161892
0001f0 73 d5 fe 3d 28 53 0d bd 40 e4 6b bd cc ab f8 bd
       0.12443056 -0.034503132 -0.057590723 -0.12142143
000200 36 d6 5c bd 29 b9 f5 3d 9f 4a 01 3d 0a 6f b6 bd
       -0.053915225 0.11998207 0.031565305 -0.08907898
000210 78 7b 2e 3e e6 1f 3c bd 32 6c 3d bd 6f ba 12 3d
       0.17039287 -0.04592886 -0.04624576 0.03582233
000220 f8 85 f1 bd 17 c2 bc 3d 3a a7 f8 bb 63 14 52 bd
       -0.11793131 0.09216707 -0.0075882943 -0.051288974
000230 27 ed 80 bc ed 07 6e bd f4 60 03 bd df 87 35 3e
       -0.015738083 -0.058113027 -0.032074884 0.17727612
000240 70 4a fe 3c 63 bc 0c bd da c8 b0 3c 48 3f 1a bd
       0.031041354 -0.034359347 0.021580148 -0.037658006
000250 72 bb 02 be 5a f3 08 3e 9b be c0 3c 27 58 c0 3b
       -0.12766817 0.13374081 0.023528388 0.0058698836
000260 e4 a2 44 3c dd 49 7d bc 19 fb 89 3d 01 48 00 be
       0.012001727 -0.015459505 0.06737346 -0.12527467
000270 be 8e 9b ba ba e0 d6 bd 7c ba f8 bd 45 45 d6 bd
       -0.0011868102 -0.10492082 -0.12144944 -0.10462431
000280 31 b1 8a bd c4 f9 1f bd c8 42 17 be 39 0d 0e be
       -0.06772078 -0.039056554 -0.14771569 -0.13872232
000290 e6 40 b2 bd ec 13 9c 3d a8 f2 47 bd 8d b7 df bd
       -0.08703785 0.07620987 -0.0488154 -0.109236814
0002a0 2d 4a 9b bd df ff 7d 3d b5 1c 59 3b 75 e0 44 3e
       -0.07582507 0.062011596 0.0033128683 0.19226249
0002b0 03 bc ba bc 28 d0 18 bc 3e d4 68 bc 2d fd f9 bd
       -0.02279473 -0.009326972 -0.014210759 -0.122064926
0002c0 4d 5b e0 bd dc f2 c5 bb 96 fd d9 bd 71 dd 11 3c
       -0.10954914 -0.006040914 -0.10644071 0.008902893
0002d0 4a 8c a1 3d a8 96 26 3e 75 a8 e0 bc 1c 88 77 3d
       0.07888086 0.16268408 -0.027424077 0.06043254
0002e0 1f 42 a7 bc 42 fb ee bc 58 df c2 bc 49 36 71 bd
       -0.020417271 -0.029172543 -0.02378814 -0.05888966
0002f0 27 3e 09 be 32 6f a2 bd 95 c5 5e bd 2b 26 b7 3d
       -0.13402615 -0.07931365 -0.054387648 0.08942827
000300 02 95 8f bd 04 fd f8 bd 9d 99 bb bd c7 8c 32 3d
       -0.07010843 -0.12157634 -0.09160159 0.043591287
000310 65 96 f9 bd dd 4b 7d 3d f7 27 16 be 34 2a 10 3d
       -0.121868886 0.061839927 -0.14663683 0.035196498
000320 72 c1 d9 3c 21 26 da 3c 52 a6 02 3c 1b 50 31 3d
       0.0265815 0.02662951 0.007974224 0.043289285
000330 a5 86 85 3c aa 23 c1 3c 6c 42 cb bd c5 c5 ce 3d
       0.016299555 0.023576576 -0.09924778 0.10096315
000340 36 7f a7 bd 84 f3 1a be c4 f8 47 3d 7b ce f3 3c
       -0.081785604 -0.15131956 0.048821226 0.029761543
000350 a6 e1 5f 3d 07 25 7a bd 59 c0 83 3c 92 11 d1 bd
       0.054658554 -0.06107047 0.01608293 -0.102084294
000360 0c ea ce bd 74 0a 0a 3d 07 06 24 bc 40 c8 5e 3c
       -0.10103235 0.033701375 -0.010011203 0.013597548
000370 61 d6 eb bb ec 33 d5 bd 41 7d 85 bd d7 72 ec bd
       -0.007197187 -0.10410294 -0.06518031 -0.115453415
000380 12 1a 42 3c c2 e5 16 bd 04 ef a1 bc 0e d9 0f 3c
       0.011847036 -0.036840208 -0.019767292 0.008779777
000390 5a e2 01 bd 1b 80 d8 ba 62 d6 47 bd 55 5f 21 bd
       -0.031710006 -0.0016517671 -0.048788436 -0.039397556
0003a0 06 1e 1a 3e f7 cd 19 bc 47 86 b0 3d 9b ed 83 3d
       0.15050516 -0.009387485 0.08619361 0.06441804
0003b0 2f 72 80 bd b4 f2 0f bd ad 57 84 bc 40 cd b4 bc
       -0.06271779 -0.03514357 -0.016155088 -0.022070527
0003c0 c4 06 3b 3d 7f 63 84 bd 42 c1 97 bd 48 92 13 3d
       0.04566075 -0.0646429 -0.07409908 0.036028177
0003d0 58 ea bf bb 4a 1d 3b 3d 28 c7 3a 3d 8b 48 a1 bd
       -0.0058567934 0.04568223 0.045600086 -0.078751646
0003e0 4b 6b 47 bb 98 b8 ab 3d 6b 68 12 3e e2 70 c6 bd
       -0.0030428942 0.08384818 0.14297645 -0.096894994
0003f0 63 a3 02 bd 6a ee 04 3a 58 6b 27 bc 1e cc 25 3d
       -0.0318941 0.0005070927 -0.010218464 0.040477864

network_body._body_endoder.seq_layers.4.bias f4 [256]
000000 c1 cc 61 bc f8 8e 2a bc 60 46 2b bd d8 3c ad b8
       -0.013781727 -0.010410063 -0.04181516 -8.260616e-05
000010 ae d6 8d 3c 5b aa 1a 3d b8 19 be bc 58 90 f7 3c
       0.017314281 0.03776012 -0.023205623 0.030220196
000020 97 f5 a3 bc 0c e7 f0 bc 60 2d e2 bc 43 87 89 3c
       -0.020014567 -0.029407047 -0.027609527 0.01678813
000030 25 23 4b 3c 43 2c 3d 3d 74 eb 18 bd 86 65 fc 3c
       0.012398516 0.04618479 -0.03733392 0.030810129
000040 7c c8 e8 3b ca 7f 03 3c 39 fa d8 3c e8 8f 3d bd
       0.0071039777 0.008026073 0.026486503 -0.046279818
000050 0c f5 24 bd 14 b0 57 bc 65 d0 00 bd c9 ad 02 3c
       -0.040272757 -0.013164539 -0.03144874 0.007976004
000060 34 45 03 3d 34 b1 5f 3c 20 74 0a bd 03 57 7f 3c
       0.03204842 0.013653088 -0.03380215 0.01558471
000070 50 79 0b bd 5d 9e 57 3d 99 38 41 bc ff 02 cc 3c
       -0.03405124 0.05264126 -0.011793279 0.024903772
000080 da cb b0 ba 24 fb d7 bc 8d d1 e5 ba 00 dd 65 3c
       -0.0013488487 -0.02636487 -0.0017533764 0.014029741
000090 b5 16 46 bc 82 04 fe bc 59 9b 48 39 b6 33 5f 3c
       -0.012090375 -0.031008009 0.00019131358 0.013623169
0000a0 5e ce 91 3b 0d e6 25 3c fc cf 36 bc b6 c7 95 bc
       0.0044496497 0.010125649 -0.011157986 -0.018283706
0000b0 5d 5b c0 bc 7c 1e 2a bc 1e dd 03 bd 30 1d 06 bd
       -0.023481065 -0.010383245 -0.032193296 -0.03274268
0000c0 46 07 a0 bc 93 18 b6 bc c4 c5 26 3d 00 ce 03 3c
       -0.019534718 -0.022228515 0.040715948 0.00804472
0000d0 26 79 86 bb 99 f5 5d bb 07 cc 5e bd e6 93 9a bc
       -0.0041037975 -0.0033868311 -0.054393794 -0.018869352
0000e0 be 91 2e 3c 87 08 74 bc 71 c6 ad bc 12 1b 94 bc
       0.010654865 -0.014894611 -0.021212788 -0.018079314
0000f0 95 ec 51 3c 12 cc ec 3b 92 5b 97 ba f8 b1 cb b9
       0.012812753 0.0072264755 -0.0011547676 -0.00038851774
000100 d1 65 8c 3c 69 ad 25 ba ac c5 ce bb 63 c5 b7 bc
       0.017138394 -0.00063200906 -0.0063101854 -0.022432989
000110 f6 91 1e 3d d0 c8 88 bc 1b 1a dc bc ee 58 e2 3b
       0.038713418 -0.016697317 -0.026867917 0.006907574
000120 6e 53 b0 3b ca 8d 7d bc 67 43 17 bd 6f 17 ad 3c
       0.0053810393 -0.0154757 -0.036929514 0.021129338
000130 f4 43 5c 3c 88 35 3a 3c a6 4e 35 bd 5b 22 50 bc
       0.013443936 0.011365302 -0.044264458 -0.0127035035
000140 cd 33 f3 3c 67 3d b6 3c 1c ad 89 bc 17 89 2d bd
       0.029687786 0.022246076 -0.016806178 -0.042367067
000150 b4 3d 22 3c 02 da 5e bd 8c c2 2e bc 2c 6b 72 bc
       0.0099024065 -0.054407127 -0.010666501 -0.01479606
000160 3d ed 00 3c 5a 76 5a 3b aa 5a 97 3a 61 79 30 3b
       0.007869062 0.0033334703 0.0011547406 0.0026927816
000170 d9 e0 ad 3b 32 10 96 bc e2 9c 04 bd 0d 2a bb bc
       0.005306345 -0.01831827 -0.032376178 -0.0228472
000180 73 0b 0e 3d 05 65 83 bb 68 29 bd 3b 34 dc 1b bd
       0.034678888 -0.004009845 0.0057727583 -0.0380518
000190 fc f7 9a bc dd 5b 2b bd 4d 78 5a bd 3d 97 17 3d
       -0.018917076 -0.041835655 -0.053337384 0.037009466
0001a0 bf 8b 0c bb 53 75 06 bd 93 0e d6 bb 23 4e ab 3c
       -0.00214456 -0.032826733 -0.006532499 0.020911282
0001b0 28 68 2e bd 7b cd 4f bc 5b 11 80 bc db f0 98 3c
       -0.0425798 -0.012683268 -0.015633276 0.018669536
0001c0 82 da 19 bc 28 2b b7 bc 8e 0e cd 3c d9 ac 1d bd
       -0.009390475 -0.022359446 0.025031354 -0.03849492
0001d0 29 f2 ca 3c f0 23 a8 bd 2e 34 8f ba 5e 97 20 3d
       0.024773674 -0.082099795 -0.0010925585 0.039206855
0001e0 6c 05 05 bc 1e b6 2a bd 44 7a 97 3d 28 b4 aa bc
       -0.008118968 -0.041677587 0.07396367 -0.020837858
0001f0 b8 94 14 bd cd 11 dc 3c 18 f2 65 3c f1 82 30 3d
       -0.03627464 0.026863957 0.01403477 0.043093625
000200 f9 65 00 3d 1d 47 c6 3c 2e c1 29 3d b1 fe bc bb
       0.03134725 0.024203831 0.041443996 -0.0057676663
000210 c0 98 5a bb b4 95 a4 3c 48 cf 20 3b b7 9b 09 bd
       -0.0033355206 0.020090915 0.0024537612 -0.033595767
000220 04 1e 5a 3b 2b 47 5c 3c 26 9c fc 3c 50 4a 5a bc
       0.003328205 0.013444702 0.030836176 -0.013323382
000230 ff c6 33 3c db 63 c4 bc e6 86 41 3d 1f 3b 07 3d
       0.010972737 -0.023973396 0.04724779 0.033015367
000240 3b 6e aa 3c 25 62 a6 3c 14 71 3f 3d 38 07 90 bc
       0.020804515 0.02031047 0.0467387 -0.017581567
000250 b4 fe 4f 3b c0 2e 1b 3c 13 07 8c bd cb 2f 0e 3d
       0.0031737508 0.009471595 -0.06837287 0.034713548
000260 92 e6 fd bc 05 89 f0 3c b6 8d 9a bc e7 55 a4 bc
       -0.030993734 0.029362211 -0.018866401 -0.020060493
000270 1e 16 6a 3c 25 79 c8 3c d6 6e 6a 3c 32 5e ab 3c
       0.0142875 0.024471829 0.014308652 0.02091894
000280 35 52 06 3d d5 32 52 3c 10 47 c7 3c b7 88 d8 bb
       0.032793242 0.012829502 0.024325877 -0.0066080946
000290 d4 d5 bc 3c 3f 00 3b bc 1f 94 17 bd 6c 80 df 38
       0.02305118 -0.011413633 -0.037006494 0.00010657389
0002a0 a0 2e 76 bb fe 16 fb b9 e1 f9 47 bc 4a 2c 98 3c
       -0.0037564412 -0.0004789158 -0.012205572 0.018575806
0002b0 7e c0 4f bb ad 7a d2 3c 12 ec 9e 3c b7 4b fd 3c
       -0.0031700428 0.025693262 0.019399676 0.030919893
0002c0 2d 3a 0c bd e2 a6 8e bc 64 cc 95 bc 35 38 94 bc
       -0.03423517 -0.01741356 -0.018285938 -0.018093208
0002d0 d1 e6 dd 3c 82 80 0e bd d0 47 34 bc 46 0c 39 bc
       0.0270876 -0.034790523 -0.01100345 -0.01129443
0002e0 af 29 df bc 4a 6d 5d 3d a8 cc ee bc c0 82 38 3c
       -0.027241556 0.054059304 -0.029150322 0.011261642
0002f0 dc 18 6f 3d d0 40 55 ba 1c ed a2 bc 3b ef b8 3c
       0.058373317 -0.0008134963 -0.019888453 0.022575011
000300 ad e7 e2 3c 07 06 e7 bc 1c 3d 7c 3b 32 ed f9 bc
       0.027698362 -0.028201116 0.0038488572 -0.030508611
000310 1b b7 09 bd b9 34 b6 3d c7 8f ae bc 72 7e 0e bc
       -0.03362189 0.08896775 -0.021308793 -0.008697139
000320 2b 13 1e bc 1a 45 82 bc b0 62 c6 bc 8f 5c 63 3c
       -0.009648125 -0.01590209 -0.02421698 0.013877048
000330 82 e4 d4 bb 62 8d 3b 3c 28 fb d5 bc fb 55 ea 3b
       -0.006496967 0.0114472825 -0.026120737 0.007151363
000340 bb 1c 85 ba 2b ef 5b bc 9f be 37 3c ce 8c d6 3b
       -0.0010155657 -0.013423721 0.011214881 0.006547547
000350 18 35 03 bd 3e 9c c9 3c fd 54 c6 bc 2e 83 e7 bc
       -0.032033056 0.024610635 -0.024210447 -0.028260794
000360 e1 54 a1 bb 12 25 2f bd 7a d3 95 bc 6e 7f 29 3c
       -0.0049234484 -0.042759962 -0.018289316 0.010345323
000370 3e b1 81 3b aa 70 98 bc ae c6 8b 3c a9 7f a5 bb
       0.0039578965 -0.01860841 0.017062511 -0.0050506187
000380 c0 2d e4 3c 25 22 67 bc 7d e3 ae 3b 56 18 69 3c
       0.027853847 -0.014107262 0.0053371773 0.014226994
000390 b1 36 31 bc f8 ec 17 bb 32 1d 2f 3b 36 b9 26 bd
       -0.010816262 -0.0023182016 0.0026720283 -0.040703975
0003a0 2e c9 06 bd 67 2b f2 3c a0 ca 45 bc 0e b1 a0 3c
       -0.032906704 0.029561711 -0.012072235 0.019615676
0003b0 3c 7b 68 bc 11 a6 59 3c e5 bb 80 bc 62 8b 31 bd
       -0.014189538 0.013284222 -0.015714595 -0.043345816
0003c0 98 39 9a 3c 60 42 35 3d 82 c5 ae bb 25 75 ab 3c
       0.018826291 0.044252753 -0.0053336034 0.020929882
0003d0 b2 2e c0 3c d3 3e 83 bc c6 bf cd 39 11 16 81 3b
       0.023459766 -0.016021168 0.0003924353 0.003939398
0003e0 a2 66 a9 b9 2c 59 e7 3b 8e c2 9e bc 9f f4 1e 3d
       -0.0003231066 0.0070601907 -0.01937988 0.038807508
0003f0 5e eb 3b bd c3 e8 1e bd 31 62 d1 ba 62 ec 4d 3c
       -0.04587876 -0.038796198 -0.0015974698 0.012568565

action_model._discrete_distribution.branches.0.weight f4 [3, 256]
000000 5d 18 47 3c c2 f7 5b bd c4 3f c1 bc cc b0 0c be
       0.012151805 -0.053703077 -0.023589976 -0.13739318
000010 d5 f5 3f 3c 12 c9 b0 3d 0f ff 80 bc 71 4a 3f 3e
       0.011716326 0.08632101 -0.015746621 0.18680741
000020 da a8 0f 3e 8f 66 56 3c 9b a6 13 bd 7b ed 5f 3d
       0.14029256 0.013085975 -0.03604756 0.05466984
000030 49 11 96 bd 18 a3 f3 3d 45 0d dd bc c4 2b a0 bc
       -0.07327516 0.11896342 -0.026983866 -0.01955212
000040 5e 99 23 be 42 b3 3b bd 2e f9 16 bd e8 ee 28 3c
       -0.15976474 -0.04582525 -0.03685873 0.010310866
000050 d9 02 17 bd e6 ef 5d 3b 36 18 19 bd 16 52 1e 3d
       -0.03686795 0.0033864914 -0.037376605 0.038652502
000060 8e c1 e6 3d 98 62 7d bd f3 16 70 3d d9 c8 16 3c
       0.112673864 -0.061861604 0.058615636 0.009203159
000070 27 c7 0e 3d 68 61 11 bd 93 5e 5d 3d 1f cc d0 bc
       0.034857895 -0.035493284 0.05404527 -0.025487958
000080 73 d4 0b bd 07 d7 1f bd 23 01 3a bd 5f cc a2 3c
       -0.034138154 -0.039023425 -0.04541124 0.019872842
000090 6b 93 17 3d a0 a9 67 3d bc d1 fa 3b fa d0 29 bd
       0.037005823 0.05655825 0.007654397 -0.04145906
0000a0 82 a2 06 bd b9 f7 2e bd 38 1e 95 3d bf d7 d9 bc
       -0.032869823 -0.042716715 0.072811544 -0.026592134
0000b0 37 12 f4 3c 52 4e 87 bd 4b 7b a0 bd 70 7e 11 3c
       0.029793842 -0.06606735 -0.07836016 0.008880243
0000c0 a7 84 1e bd 66 b7 2a bd fc 7d f8 bd 96 dc e4 bc
       -0.038700726 -0.04167881 -0.121334046 -0.027937215
0000d0 a8 ca 78 3c 29 60 21 3c a9 e6 a2 bc 83 f1 d6 3c
       0.015185036 0.0098495865 -0.019885378 0.026238209
0000e0 01 5c 21 bd ad 5c ad bc 84 71 25 39 a7 8a 6d bd
       -0.039394382 -0.021162355 0.00015777914 -0.057993557
0000f0 bf 65 fb bd 13 d7 27 3e d6 37 0e 3d fe 57 cb 3c
       -0.12275266 0.16390638 0.034721218 0.024822231
000100 a0 87 68 3d ab e3 56 3d da 2a 2e 3c 41 90 f6 39
       0.056769967 0.052463215 0.010630334 0.00047028254
000110 f3 de a7 bd 12 b2 47 bd 89 3c ea bd 6f be 98 3a
       -0.08196821 -0.048753805 -0.114373274 0.0011653433
000120 18 b1 f3 bc 78 7d 51 3d 66 4b 8c bc 02 fe 28 3d
       -0.02974753 0.051145047 -0.017125797 0.041257866
000130 b6 80 02 be 6c d5 e2 3d 2d b7 1e 3d 69 ba 93 bd
       -0.12744412 0.11075863 0.03874891 -0.07213289
000140 e2 49 1c 3e 42 54 59 3c 4f b6 9b 3b 25 87 11 3b
       0.15262559 0.0132647175 0.0047519575 0.0022205797
000150 3d cd 67 bd 88 b3 93 bb c8 3d 62 3c 69 01 e8 3c
       -0.056592215 -0.004507486 0.013808675 0.028320985
000160 77 1f 14 3a ff da 51 3d 39 bc c5 3d de b5 6b bd
       0.00056504406 0.05123424 0.09655041 -0.05754649
000170 0c cc 40 bd 38 02 58 bd 0c 85 13 bd 23 d5 8b bc
       -0.047069594 -0.05273649 -0.036015555 -0.017069405
000180 35 bc 73 3d 24 d8 ad bd 37 17 fd 3d 4e 92 84 bd
       0.05950566 -0.08488491 0.123579435 -0.06473218
000190 bb ef e0 bc ad 71 d5 3c e3 48 f4 3c 71 28 6e 3d
       -0.027458062 0.026055181 0.029819911 0.058144037
0001a0 f4 4c 96 3d 19 2c 41 bd 5d a6 52 bb 73 33 04 3e
       0.073388964 -0.047161195 -0.0032142617 0.12910251
0001b0 cc a8 b8 3b 26 9b c4 3c 11 b4 8d 3d 3c ad ef 3d
       0.0056353565 0.023999762 0.069191106 0.11702964
0001c0 db 96 0f 3e 2a 4b 79 bd 54 dc 3f bd 1e e8 bb 3d
       0.1402239 -0.060862698 -0.04684098 0.09175132
0001d0 34 4f d5 3b d6 f1 8f 3c f2 fa c8 bb 98 27 5d 3d
       0.006509686 0.017571371 -0.0061334306 0.053992838
0001e0 0a 3d a8 3c c7 63 5d 3d 4c 3c 56 3e eb a9 84 bd
       0.020536918 0.054050233 0.20921439 -0.06477722
0001f0 d6 21 52 bc 68 7f 80 bd 2f 8d 61 bd f8 4c 25 3d
       -0.01282545 -0.06274301 -0.055066284 0.040356606
000200 c9 78 c6 3c d9 bf 3d 3d ed c8 d4 bc 6c df d0 3c
       0.024227517 0.04632554 -0.025974715 0.02549716
000210 36 cb 63 bb 45 51 0b 3e e4 7e 00 bd 1d b5 45 bd
       -0.0034758574 0.1360522 -0.031371012 -0.048268426
000220 8e 7d be bc ca 14 44 bd 6f 7d da bd ab f4 b0 bd
       -0.023253229 -0.04787139 -0.10668456 -0.08640417
000230 42 d5 f7 3c fb 9d c2 3d 81 2a 7c bd 7a 08 f8 bc
       0.030253056 0.09502789 -0.061563972 -0.03027748
000240 ba 3b 2a bc e2 91 5d b9 ca ad d3 bd 8b 38 a8 3b
       -0.0103902165 -0.00021130548 -0.10335882 0.0051336936
000250 57 c1 2b bd 04 0e 60 3e fc 38 06 bd 4b 67 a6 3c
       -0.04193243 0.21880347 -0.03276919 0.020312926
000260 f0 6d 49 bd 2e d2 87 3d 54 66 01 3e 75 b2 ae 3d
       -0.04917711 0.066318855 0.12636691 0.08530132
000270 47 a0 a1 3d c4 fc 80 3d 73 37 f1 3b 1c 3b c4 3c
       0.078918986 0.06298211 0.0073613464 0.023953967
000280 58 f5 0c 3b 5e eb 94 3d a4 c1 1a bc 23 ef af 3c
       0.002150854 0.07271455 -0.009445582 0.021476334
000290 0a c4 d7 bc a5 0c e7 bc c1 2d 0b 3d 5e cd b8 3d
       -0.026338596 -0.028204272 0.03397918 0.09023546
0002a0 f6 da 18 3e 10 40 c5 3d bc 5b cf bd 12 cc 16 3e
       0.14927277 0.096313596 -0.10124919 0.14726284
0002b0 83 17 92 3d 64 b4 22 3d 68 50 9b bc ff c8 a2 b8
       0.07133391 0.039722815 -0.01895924 -7.7622004e-05
0002c0 f7 d1 5f bd 01 a4 22 3d 5a 9e 6f 3c 98 1e 5b 3c
       -0.054643597 0.039707188 0.014625156 0.013373993
0002d0 bc e7 af bc 7b 5a 81 bd 21 f0 72 bb b6 dd ca 3d
       -0.021472804 -0.06316086 -0.0037069398 0.09905569
0002e0 47 77 44 3d 7a d4 c7 bc 9e c2 8f 3c f2 70 08 bd
       0.047965314 -0.024393309 0.017548855 -0.033310838
0002f0 9b 02 0d 3d f7 b5 00 bc 26 f4 12 bd bd bc 04 3e
       0.034426313 -0.007855884 -0.03587737 0.12962623
000300 31 8f 3e bd 56 2f 76 bd 55 6d 04 3d 6a db 74 3d
       -0.046523277 -0.060103737 0.03233083 0.059779562
000310 49 96 73 3d 8c 13 af bc 77 c1 84 bc 8b f0 ae bc
       0.059469495 -0.021371625 -0.016205532 -0.021354934
000320 8d 61 2b bc 21 80 c2 bc 2f 67 8e bc 9f 57 b8 bd
       -0.01046027 -0.023742737 -0.017383186 -0.090010874
000330 66 05 c4 3d b3 56 6d 3d fb 72 2b 3b 17 1d b4 3c
       0.09571342 0.05794401 0.0026161063 0.021986527
000340 f6 17 0a bd 7d fc 7e 3d 61 96 c1 bd c8 9d 83 ba
       -0.033714257 0.06225251 -0.094525106 -0.0010041529
000350 79 83 91 3b 7b 8d c6 bd b2 5e 64 bc fa a2 32 3c
       0.0044407216 -0.09694954 -0.013938593 0.010903114
000360 b0 e5 2e 3d d2 81 dd 3d d0 48 a9 3c ab b7 f2 3d
       0.042699516 0.10815777 0.020664603 0.11851438
000370 48 fc 37 be e6 22 50 3e fa 9e 1a bc 3b 87 3d 3d
       -0.17967331 0.20325813 -0.009437317 0.046271544
000380 a6 3d c0 bc 4c d6 e3 3d 41 5e 95 3d e4 3a 81 bd
       -0.023466896 0.11124858 0.07293368 -0.063100606
000390 a7 d5 93 bc 0e 4f d6 3d 41 bf 22 3d ea 20 ac bb
       -0.018046213 0.10464297 0.039733175 -0.005252947
0003a0 c6 fc 9b bd 9b e5 25 3d a0 85 2a bd d1 72 9c 3d
       -0.07616572 0.040502172 -0.04163134 0.07639087
0003b0 43 66 b2 bc 46 33 ba ba 19 4b db 3b 13 61 cf bc
       -0.021777278 -0.0014205955 0.006692302 -0.025314843
0003c0 37 b5 92 3d 02 0c 0f be bf 23 90 bd 57 9d 16 bd
       0.0716347 -0.13969424 -0.07038068 -0.036771145
0003d0 13 71 15 bd 9c 36 2a 3e f3 65 99 bc d0 f6 b6 bd
       -0.03648479 0.16622394 -0.018725371 -0.089337945
0003e0 bd 03 0b 3d 3c 08 25 3e 83 36 df bd bb 16 27 3e
       0.033939112 0.16116422 -0.10899069 0.16317265
0003f0 eb 60 5e 3d 93 d2 20 3d 22 c2 5e bd 4f b7 fa 3c
       0.054291647 0.03926332 -0.05438436 0.030604986
